pb_and_ckpt/lenet5/tflite_out/tflite_lenet5.tflite (tflite, 249324 bytes, 10 tensors)

conv_relu_1/weights f4 [1, 5, 5, 6]
000000 47 16 fd 3d b4 9c 8a 3d 54 13 8e be 46 6c 9f bd
       0.12357765 0.0676817 -0.2774912 -0.077843234
000010 a1 ab 82 be 45 34 79 be 50 a3 ea 3d d7 e5 87 bb
       -0.25521567 -0.24336345 0.11456931 -0.004147272
000020 bc 92 4b be d3 91 eb bd 8f 82 45 be 42 cb 4f be
       -0.19880193 -0.11502423 -0.19288085 -0.2029238
000030 1b 06 06 3e 5b 9b 21 bd eb 4d 8a bc d8 ba d5 bd
       0.13088267 -0.0394548 -0.016882857 -0.10436028
000040 3a 34 a5 bd a7 e8 1c be c9 c7 50 be 2b d1 cf bd
       -0.08066602 -0.15323125 -0.20388712 -0.101473175
000050 6c a3 53 be f8 97 7e be ab c7 6e 3c 0b 71 90 be
       -0.20667809 -0.24862659 0.014573972 -0.28211245
000060 9a 1a 82 3c e1 2c ff bd 4f 3f 27 3b e3 2e 7f be
       0.015881825 -0.12459732 0.0025519913 -0.2492023
000070 cc 04 23 3e 85 16 2b be 5b 31 44 3d ae 43 45 bd
       0.15919799 -0.1670781 0.04789863 -0.048160248
000080 82 41 54 be be 67 1c bd 32 1d ac be dc c4 01 be
       -0.20728114 -0.038184874 -0.33616024 -0.12672752
000090 e3 39 42 be 33 f5 ba 3d e8 61 9a bd 4c 55 0d 3d
       -0.18967395 0.09128799 -0.075382054 0.034505174
0000a0 64 26 ae be ea 66 fb bd c3 8e 2a bd ae a1 2c bd
       -0.34013665 -0.12275489 -0.041640054 -0.042146377
0000b0 c1 4e e6 bd 04 5d 83 be 58 f4 9c 3d bf a2 b8 be
       -0.1124549 -0.25656903 0.07663792 -0.36061665
0000c0 45 09 1e be 0d 2b 6e be e0 93 77 3d e6 7a 38 3c
       -0.15433224 -0.2325861 0.06044376 0.01125977
0000d0 97 82 bb 3e dc ff 1b be 4a 27 a5 be ed 88 fa bd
       0.3662307 -0.15234321 -0.32256538 -0.12233148
0000e0 a7 9d 25 be 2b 0a 21 3c 47 58 3a 3e 87 bc e9 bc
       -0.16173421 0.009829084 0.18197738 -0.02853228
0000f0 85 26 8c bd 6b 77 9b bc 29 4d 27 be f5 15 b5 3e
       -0.068432845 -0.018977841 -0.16338028 0.35368314
000100 f2 38 fc bd 8c b2 0c be 1e 13 a2 bd 0a 23 2d 3e
       -0.12315549 -0.13739985 -0.079138026 0.16907898
000110 31 b4 51 be 5a c0 1a 3d b1 f6 82 be 01 68 37 3e
       -0.20478894 0.037781097 -0.25578836 0.17910768
000120 f1 3f 10 be 8c 73 b9 bd ef 53 5c 3d 44 8f 80 3e
       -0.14086892 -0.09055242 0.053790983 0.25109303
000130 3d af 90 3e f0 a6 9e bb 0b 24 d1 bd a5 0b 72 3d
       0.28258696 -0.004841678 -0.10211953 0.059093136
000140 de c4 29 be 39 59 ad 39 9f c6 c3 3e e0 ff 92 bd
       -0.16579005 0.00033063607 0.38237473 -0.071777105
000150 99 33 4e be fa 21 ab 3d f5 91 a7 be d6 35 31 3d
       -0.2013687 0.0835609 -0.32728544 0.043264233
000160 4e ce 7b 3e 01 8c a4 3e bf f5 87 be c4 8d 48 bd
       0.24590418 0.32138065 -0.26554677 -0.048963323
000170 d6 f2 e7 bd bb bc e2 3d ef 5a 64 be 73 a1 cb 3d
       -0.11325614 0.11071154 -0.22300313 0.09942903
000180 63 6e 19 bd b2 a2 6f bd 9f 4d b5 3d 4e 3c 83 3e
       -0.03745879 -0.058504768 0.08852696 0.25631946
000190 4c 42 9f 3e 7e 68 80 3e 81 60 0b be cc d6 ff 3c
       0.31105268 0.2507972 -0.13611032 0.031230353
0001a0 50 a2 90 3e da 7d 45 3e bf 4c 86 3e 4a 6e 93 3e
       0.28248835 0.1928629 0.26230428 0.2879508
0001b0 7b a3 12 be 2d 49 0e 3e fb 40 24 3e 2f f3 23 3e
       -0.14320175 0.13895102 0.16040413 0.16010736
0001c0 66 ac f2 3e e8 df 37 3e f7 b6 2f bd c0 24 61 3e
       0.47397155 0.17956507 -0.0428991 0.21986675
0001d0 28 47 ef 3d 19 3b 06 3e a4 cb c0 bc 5d e1 e1 3d
       0.11683494 0.13108481 -0.023534603 0.11029313
0001e0 2d 25 35 be 06 45 1f 3e 3e 55 0a 3e 5a f6 30 be
       -0.17689963 0.15553674 0.1350908 -0.17281476
0001f0 a3 ad 66 3e 88 19 27 3e 85 e1 62 bd 7f a2 97 3d
       0.22527175 0.16318333 -0.055390853 0.074040405
000200 e7 2f cf 3e e0 55 cc 3d 84 69 40 3e 9f 42 73 3e
       0.40466234 0.09977317 0.18790251 0.23755883
000210 8d ee 36 be 1e b0 fc 3d e7 fe cc 3e 79 bc 40 bc
       -0.17864437 0.12338279 0.40038225 -0.011763685
000220 6f c9 92 3e 0b 0d 8d 3d a4 2d d8 bd e5 32 58 3e
       0.28669307 0.068872534 -0.1055558 0.21113165
000230 b0 21 3b 3e e9 06 88 bb e0 95 a9 3e a4 c9 b9 3d
       0.1827457 -0.0041512144 0.33122158 0.09071663
000240 b8 d3 b9 be 22 dc 3b 3e ca 06 8d 3e b6 0a 2d be
       -0.3629434 0.18345693 0.27544242 -0.16898617
000250 f1 ca b1 be f9 7f bb 3c
       -0.34725145 0.02288817

conv_relu_1_1/Conv2D_bias f4 [6]
000000 92 08 aa 3d 12 01 ce 3d d7 dc 0a bd ff 14 35 bd
       0.08302416 0.10058798 -0.033902016 -0.044209477
000010 d3 42 a5 3d 56 05 ac bc
       0.08069386 -0.020998638

conv_relu_3/weights f4 [16, 5, 5, 6]
000000 ba f3 ed 3d 99 2f 35 bd 0e 19 7b be f3 b8 12 be
       0.11618753 -0.044234846 -0.24521276 -0.14328365
000010 e2 5f 1c 3d 11 84 0d be 87 a9 b3 3d bc 5d d4 3d
       0.03817738 -0.1381991 0.08772569 0.10369441
000020 dc f9 25 3e 19 04 99 be fa 48 69 bd 89 1f 1c be
       0.16208595 -0.2988594 -0.05695436 -0.15246405
000030 b0 f7 d4 bd 0a 55 55 3d 2c ab 4c 3e 22 de 48 3e
       -0.10398805 0.052083053 0.19987172 0.19615987
000040 32 ec 86 3e ad 41 b1 3c 0d 2c 28 3c 11 23 2f be
       0.26352078 0.021637762 0.010264409 -0.1710322
000050 53 22 81 3d e2 22 a9 bd 96 da 4b 3e 05 fe 82 3e
       0.06305375 -0.082586065 0.19907603 0.25584427
000060 07 8d 8a 3b d1 93 bf bd 81 83 34 3e 42 61 45 be
       0.0042282376 -0.093543656 0.1762829 -0.19275382
000070 89 a4 0c bc bd b5 c7 3c e6 54 8e 3c 21 b2 65 3b
       -0.00858415 0.024378652 0.017374467 0.00350488
000080 02 eb 5f bd dd 75 01 be 88 79 b3 bd 61 98 0e be
       -0.05466748 -0.12642618 -0.087634146 -0.13925315
000090 92 f6 3c be e4 47 bd bd 08 06 0b bd 4a 86 df bd
       -0.18453434 -0.09242228 -0.0339413 -0.109142855
0000a0 00 9a 8d 3e 6b a2 a5 3d c3 0c 03 bd 01 3e 87 3d
       0.27656555 0.080876194 -0.031994592 0.06603623
0000b0 92 ca ba 3d 98 c4 bf 3d fb e6 1b 3e 65 46 4c 3d
       0.091206685 0.09363669 0.15224831 0.04987182
0000c0 ed 82 91 bd a1 e1 b7 bd c6 dd 20 3b 0d f7 60 3d
       -0.0710505 -0.08978582 0.002454625 0.054923106
0000d0 f1 db 2d 3e bb 1e b2 bd 51 bc 11 3e e3 90 a2 3d
       0.16978432 -0.086972676 0.14231993 0.07937791
0000e0 3d e8 f0 bb 55 3b 81 3d e4 08 39 ba 7d 3c 07 be
       -0.0073519037 0.06310145 -0.0007058515 -0.13206668
0000f0 26 c3 b7 bc ce 89 d3 bd 98 bd e9 bd c2 a6 03 be
       -0.022431921 -0.103290185 -0.11413115 -0.12856582
000100 f3 04 e5 3d e8 b2 93 3d a6 40 3c be e0 8b 3d be
       0.111825846 0.07211858 -0.18384036 -0.1851039
000110 c2 52 2e 3e 70 f9 4b be 83 8c 49 3e b0 08 a3 3c
       0.17023757 -0.19919372 0.19682507 0.019901603
000120 96 15 fc bd 52 ec 57 bd f6 44 81 3c 41 8e d7 bd
       -0.12308805 -0.052715607 0.015779953 -0.1052518
000130 f2 c3 f8 3d 09 89 d5 bc b3 5f a7 3d 79 29 1e 3e
       0.121467486 -0.02606632 0.0817255 0.15445508
000140 66 4f 34 3e 32 4c da bd 67 c4 09 be 0a 90 fc bd
       0.17608413 -0.10659064 -0.13453828 -0.12332161
000150 ca 07 06 3e e5 a7 bf bd 4e 07 20 be 4f a8 fb 3d
       0.13088909 -0.09358195 -0.15627787 0.12287962
000160 47 d4 aa bd 5d 02 7f 3e 5c 6a 9b bd 2c 26 4f 3c
       -0.0834127 0.24903245 -0.07588646 0.012643378
000170 76 0b 9d 3e 62 e6 02 bc a1 06 aa 3e c8 c7 53 3d
       0.30672807 -0.007989498 0.33208182 0.051704198
000180 94 4b d3 bd 27 fd 56 bd 2d f2 45 3e a4 3c bc bd
       -0.1031715 -0.05248752 0.19330664 -0.09191254
000190 d4 b9 53 3e 3c a3 37 bd c6 91 0c bd 58 f8 f5 bc
       0.20676357 -0.044833407 -0.034318708 -0.030025646
0001a0 08 b0 96 bd 2e 7a dd bd 54 cb 26 3e ad be 13 be
       -0.07357794 -0.108143196 0.16288501 -0.14428206
0001b0 5c 36 78 3c 13 81 60 3d 31 20 f5 bd 79 97 ba 3d
       0.015149679 0.054810595 -0.11969031 0.09110922
0001c0 7f 90 96 be da 40 ed 3d 7e 4c 8b bc 23 0d 1a 3d
       -0.29407117 0.11584635 -0.017004248 0.037610184
0001d0 e7 85 e3 3c 1e c0 82 3e 75 47 49 be 22 d3 44 3e
       0.02777381 0.255372 -0.19656165 0.19221166
0001e0 98 5d 16 be 50 ae 7c be c0 78 e3 3d ab c6 54 bd
       -0.1468414 -0.2467587 0.111070156 -0.051947277
0001f0 2b 7a 75 3e 2f 7e e8 bc e6 16 1d bd a1 ba 09 be
       0.23972385 -0.028380482 -0.038351916 -0.134501
000200 cb c8 3e bd f6 3c c1 bb 5f 6f 2a 3d b0 71 3e 3d
       -0.04657821 -0.0058971597 0.041610118 0.04649514
000210 b5 f9 a2 bd ec 39 5f be 71 45 e3 3d 05 f0 d9 bd
       -0.07957784 -0.21799439 0.11097229 -0.10641483
000220 ca bc cc bb 18 17 00 be 0a bf 3e bd 7b a7 c3 3d
       -0.0062480913 -0.1250881 -0.046568908 0.09553429
000230 f1 fc 85 3d d4 98 56 3e ee e4 c2 bd ab 21 0f bd
       0.06542385 0.20956737 -0.09516321 -0.034944218
000240 7b 5d ae bb 4a c1 b9 bd 88 2c 0d bd 96 90 1e bc
       -0.0053212023 -0.0907007 -0.034466296 -0.009678027
000250 c0 96 96 bd dc fe 1b 3e 19 ff 14 3d 65 6b 6d 3c
       -0.07352972 0.1523394 0.036376093 0.014490937
000260 e5 11 d0 39 2c d9 3b be 5a 53 ce 3d e4 b0 0e 3b
       0.00039686184 -0.18344563 0.10074492 0.0021772915
000270 df 5c 21 be c0 96 ef bc 44 68 0a 3e cd 23 f0 3d
       -0.15758084 -0.029246688 0.13516337 0.117255785
000280 65 12 5c 3e bb 47 9b bd da c4 1d 3d a0 3d a9 bb
       0.21491392 -0.07582041 0.03851781 -0.005164817
000290 19 62 09 be 5e f9 8a 3d 8b cb 15 3d 55 ff d6 bd
       -0.13416328 0.06785844 0.036571067 -0.104979195
0002a0 cd 8c 56 3d 88 e7 1c 3d 47 dc 44 be 8c 4e 3f 3d
       0.05238037 0.038306743 -0.19224654 0.046705768
0002b0 8b 6f 98 be bb 5e 71 3d 26 f5 01 3c 3d cf 11 be
       -0.297726 0.058928233 0.007931983 -0.14239211
0002c0 8e cd 48 bc e7 ae 1d 3e 07 3b 3a bd 50 be d5 bd
       -0.012256039 0.15398751 -0.04546645 -0.1043669
0002d0 79 ce 91 3d bd b7 52 3c 13 f9 82 bc ab 69 aa 3c
       0.0711946 0.012861189 -0.015987908 0.02080234
0002e0 0f a4 2b 3e fb bd 38 bd 1a 1b ad 3b 79 2a 92 be
       0.16761802 -0.045103054 0.005282772 -0.2854803
0002f0 75 72 2f 3b 0b 45 ed 3c d2 5c 91 bc 09 86 13 bd
       0.0026771103 0.028963586 -0.017744455 -0.036016498
000300 bf 32 d2 3d 63 25 d4 bd 5d 0b b0 bc f6 59 25 ba
       0.10263585 -0.103586935 -0.021489793 -0.0006307656
000310 4b 53 14 bc ef a1 41 be a9 cd 2a 3d 4a b0 76 be
       -0.009053062 -0.18909429 0.04170004 -0.24090686
000320 da f7 06 be ae 88 35 be e0 c9 c2 bd 5d 8b 48 be
       -0.13180485 -0.1772792 -0.09511161 -0.19584413
000330 6f 48 f3 bd ac 13 92 be a0 92 20 be 3c 7c bc bb
       -0.1187905 -0.28530633 -0.15680933 -0.0057521146
000340 91 06 01 be 4c d7 49 be 29 00 a4 3c a1 a3 68 bd
       -0.12600161 -0.19711035 0.020019608 -0.056796674
000350 7f 5b 04 bd 87 ee c7 bd d2 a8 07 3e 97 dd 31 be
       -0.03231382 -0.09762292 0.13247994 -0.17369686
000360 2c a8 ad 3d 05 9a df bd d1 e6 25 bc e8 57 b8 bd
       0.08479342 -0.10918049 -0.010125832 -0.09001142
000370 89 41 0c bd 7b 37 57 be 53 b6 b0 3d 6e 1e 4e be
       -0.034242187 -0.21017258 0.086285256 -0.20128796
000380 97 11 5a be 83 6c 96 bd 60 30 55 be ed 93 a7 be
       -0.21295772 -0.07344916 -0.20819235 -0.32730046
000390 88 80 c6 bd 6c 0e de bc d8 6d 10 3c 5e 64 95 bd
       -0.09692484 -0.027106486 0.008815251 -0.07294534
0003a0 a9 f6 4a be 75 71 d4 be bb b2 f8 3d 56 70 02 be
       -0.19820656 -0.4149281 0.12143465 -0.12738165
0003b0 25 cc 17 be 67 0f 66 bc 78 45 06 3c 5e 13 62 be
       -0.14823969 -0.014041758 0.008195274 -0.220777
0003c0 e2 1f 5f 3e bc f1 93 be 18 ad 15 bd 18 85 c9 bd
       0.21789506 -0.28895366 -0.03654203 -0.09839839
0003d0 52 3b 8f ba 07 35 87 be 43 ad 48 3e 4b 30 98 3d
       -0.0010927713 -0.26407644 0.19597344 0.07431086
0003e0 cf 69 83 be e1 79 69 be c1 55 d8 bc 82 b1 be be
       -0.25666663 -0.228004 -0.026408078 -0.37244803
0003f0 d0 a4 c5 3d 7d 2a 01 bd 77 ce 23 be 97 87 0f bd
       0.09650576 -0.03153466 -0.15996729 -0.035041418

conv_relu_3_1/Conv2D_bias f4 [16]
000000 75 80 ab 3d fb ed 9a 3d 1b ab 26 be c6 c2 db bd
       0.083741106 0.075649224 -0.16276209 -0.107305095
000010 32 b7 b1 bd ea b1 12 be 63 b2 e8 3d dd 6e 9b 3b
       -0.0867752 -0.14325681 0.113621496 0.0047434405
000020 32 cb 05 be 9d 42 6a bd ff cb aa bd f2 bd 57 bd
       -0.13065794 -0.057192434 -0.083396904 -0.05267138
000030 0d da 64 3e be 45 41 3d 95 54 3a 3d 02 45 20 bd
       0.22348805 0.047185652 0.04549082 -0.03912831

conv_relu_5/weights f4 [120, 5, 5, 16]
000000 47 5d 0c 3e cd d9 c0 bd a2 b3 50 3e c6 d2 f4 bd
       0.13707457 -0.09416542 0.20381024 -0.11954264
000010 cc a3 9c bc fc 5b a6 be 56 70 1c 3d 72 3e a3 be
       -0.019121073 -0.32492054 0.03819307 -0.3188358
000020 fa 65 b8 bc fd 53 d1 3d 2b 55 74 bd b3 23 59 3d
       -0.022509564 0.102210976 -0.059651535 0.05301256
000030 75 07 ed 3c d2 17 87 be 05 5b 9e bd d1 70 85 be
       0.02893422 -0.2638536 -0.07732204 -0.26062635
000040 29 1a f7 bd a6 c9 5c bd 5c 92 15 3c 7b 73 10 3e
       -0.120655365 -0.053903244 0.009129133 0.14106552
000050 90 42 8d 3d 17 5d 3e bd 70 62 31 be 0e a6 d1 bd
       0.068974614 -0.046475496 -0.17322707 -0.102367505
000060 c5 93 45 3d e0 68 4e 3e 83 b0 22 be a9 d0 a3 bd
       0.048236627 0.20157194 -0.15887646 -0.07998783
000070 75 b6 28 bd e1 57 58 be 1a ad 42 bc 89 90 41 bd
       -0.04118963 -0.21127273 -0.011882091 -0.04725698
000080 00 c9 b8 3d f8 b9 4b 3d d9 58 e3 bd 8b 55 cb 3d
       0.09022713 0.0497379 -0.11100931 0.099284254
000090 64 a7 67 3e 78 33 80 3e 7e a7 c6 3d ac 33 b8 3d
       0.22622448 0.25039268 0.09699915 0.08994231
0000a0 ec 94 e4 3d c2 ca 3b be f8 72 be 3b da e5 20 3e
       0.11161217 -0.18339065 0.005812045 0.15712681
0000b0 f8 e0 2d bb ea 6f ae bd 3f 37 1e be 99 45 c9 bd
       -0.0026531797 -0.0851744 -0.15450762 -0.09827728
0000c0 70 f9 e3 3c 1b 6f 03 3e 2c 87 04 3e 7b a0 b5 bd
       0.027828902 0.12835352 0.12942189 -0.088685
0000d0 6e 6b bb 3e bc 39 04 3e 3b a7 4d 3e 81 c8 d3 bb
       0.366054 0.12912649 0.20083325 -0.006463111
0000e0 e1 b8 39 3e a5 d8 6d be 7c ef 02 3e 51 df af 3d
       0.18136932 -0.23227175 0.12786669 0.08587516
0000f0 a7 2f 0e 3e d5 83 45 bd 12 36 8b bc 3f 3f 2e 3d
       0.13885365 -0.048221428 -0.016993556 0.042540785
000100 4e d1 e9 3c 43 dc 91 bd de bb 8d bd 7a 39 1b bd
       0.028542187 -0.0712209 -0.069205984 -0.03789661
000110 7a db 29 3c 47 bc 34 3d 27 df 13 3e 09 4b 13 bd
       0.010367269 0.044124868 0.14440595 -0.03596023
000120 ac 4c af 3d bc ac 35 be f4 fe cd 3d 8e 9c 56 bb
       0.08559546 -0.17741674 0.10058394 -0.0032747122
000130 35 ff 00 3d 2b 7b a0 3d 44 e0 8a bd 48 b5 7e 3e
       0.031493384 0.078359924 -0.067810565 0.24873841
000140 f1 75 a8 3d 4b fe f9 3c c3 43 9b bd cc fe db 3d
       0.082256205 0.030516764 -0.07581284 0.10741958
000150 32 d4 36 3d 87 c8 5d bd f3 7f d8 3d 63 39 70 3b
       0.04463596 -0.054146316 0.105712794 0.00366553
000160 31 6c 15 bd 55 74 f4 bd fb 68 85 3e 06 3c 2f 3e
       -0.036480132 -0.11936251 0.26056656 0.17112741
000170 39 55 8a bd 5f 66 9a be 36 74 d8 bc c7 de 01 be
       -0.06754536 -0.30156228 -0.026422601 -0.12682639
000180 76 84 72 be 10 85 b4 bc 0f 5f ed 3b b8 e8 c3 3c
       -0.23683342 -0.022036105 0.007243998 0.02391468
000190 64 23 37 3e 2b c3 34 3e d1 8e 25 3e 0e 82 aa be
       0.17884594 0.17652576 0.16167761 -0.3330235
0001a0 22 3f 54 3e 85 35 35 be 48 30 4f 3e f7 e3 f1 3d
       0.20727208 -0.17696197 0.20233262 0.11811059
0001b0 5c 48 bf 3d ac 27 a0 bd 5f 2d 28 3d fa ec e9 bc
       0.09339973 -0.07820067 0.041058894 -0.028555382
0001c0 18 00 50 be c4 62 ea bc 96 43 ae 3c 4e 2c df 3d
       -0.20312536 -0.028611548 0.021272462 0.10897122
0001d0 63 6e c6 3d 8c b0 18 be 26 85 f7 3d bb dc 09 bf
       0.09689023 -0.14911097 0.12085943 -0.5385243
0001e0 83 79 00 bd 13 bd ef bd a3 42 83 3e d3 d1 ee bc
       -0.031365883 -0.11705985 0.25636777 -0.029152786
0001f0 1a 79 83 bb da 62 55 bd 65 c5 b3 bd c0 f2 c7 3b
       -0.004012239 -0.052096225 -0.087778844 0.006101936
000200 47 a6 8c 3e 0d 8f 50 bd ec d4 db bd 3f dd 38 be
       0.2747061 -0.050917674 -0.10733971 -0.18053149
000210 2e 93 0f be 10 95 35 3e f1 4a 49 bd f1 2e 00 be
       -0.14020988 0.17732644 -0.049143735 -0.12517907
000220 f9 63 1d 3e 83 d9 38 3d 0e 8d df 3b ff b2 b2 3c
       0.15370168 0.04512931 0.006822235 0.021813868
000230 47 3c 05 3e 85 2d f8 bd b4 6a 26 3c 2b 51 71 be
       0.13011275 -0.12118057 0.010157276 -0.2356612
000240 97 a1 17 bd 68 29 b7 bd d5 17 25 bd e5 49 f4 bc
       -0.03701934 -0.089434445 -0.04030593 -0.029820392
000250 92 c2 66 3d 5e 06 1c be d9 b0 42 3e 55 52 23 3d
       0.0563379 -0.15236804 0.19012775 0.03987344
000260 71 ba 03 3d d3 25 11 be 3a d8 43 3d 1f 16 a4 3e
       0.032160226 -0.14174585 0.04781363 0.32048127
000270 af 2d 83 bc f5 96 3f be 17 e9 2d 3e c3 02 a1 bb
       -0.016012995 -0.1870993 0.16983448 -0.0049136593
000280 a1 b3 78 3e 39 a2 73 bb 78 a8 7a bc cf 6a 51 3d
       0.24287273 -0.003717555 -0.015298955 0.05112725
000290 f9 23 0c 3c 59 09 de bd 75 63 d7 bd 13 8d f3 be
       0.008553498 -0.10841627 -0.10517017 -0.4756857
0002a0 2c ba 05 3e 33 b6 f2 3c 7a 7c 6b 3d 7c 16 f2 3d
       0.130593 0.029627895 0.057491757 0.11820695
0002b0 93 f2 93 3e e7 4e 29 bb 2c 01 1a bc 51 60 df bb
       0.28896007 -0.0025834383 -0.009399693 -0.0068169017
0002c0 e7 23 91 be 2c 5c 18 3e 5a b5 db 3c 83 ae f9 bd
       -0.28347704 0.14878911 0.026819874 -0.121914886
0002d0 a0 4b 14 3e aa b2 c4 3c 7a 44 9a 3d 59 14 ae bb
       0.14481974 0.024010975 0.07532592 -0.005312484
0002e0 03 74 d5 3d 46 96 b2 3d f1 06 36 bd 58 57 32 bc
       0.10422518 0.08720069 -0.044440214 -0.010885082
0002f0 df e7 23 3e 18 b9 85 3d fc 78 50 be 25 37 d6 bc
       0.1600642 0.065294445 -0.20358652 -0.026149342
000300 f9 04 4f 3d 94 f0 ae bc b3 fb 8e 3d 99 de 00 3e
       0.05054185 -0.021354951 0.069816016 0.12584914
000310 eb 14 bc be 1c 63 60 be 3c ff 91 be 71 33 11 3e
       -0.3673471 -0.21912807 -0.2851504 0.1417978
000320 f0 41 9d 3d 57 e7 20 bd 4c b1 14 3c 9e e0 04 be
       0.07678592 -0.039283123 0.009075474 -0.1297631
000330 6e 78 79 3c 39 5e 77 bd 40 7f 9e bd 47 35 6e 3d
       0.015226467 -0.060392592 -0.07739115 0.058156278
000340 77 08 7f 3c 2b 7f 8e 3e 3d 5d 15 3e 58 fa 45 3d
       0.015565983 0.27831396 0.14586349 0.04833445
000350 f5 1d 93 3e a8 e3 81 3d a3 4f fa 3d 7b 4d ac bd
       0.28733793 0.0634225 0.12222221 -0.08413216
000360 99 f8 3c 3e 53 25 33 3d 91 5f 73 3d 3a 5a cc bc
       0.18454207 0.043736767 0.05941731 -0.024945367
000370 4c f3 7c bd 04 24 ed be 0b 2f 49 3e 23 f7 08 be
       -0.061755463 -0.4631654 0.19646852 -0.13375525
000380 f0 be f3 3d 8d 52 1b 3e 6a f1 d3 3d d0 de 21 3e
       0.11901653 0.1516821 0.103487805 0.15807652
000390 28 6c 0f 3d 92 4b 16 3e 0a e5 22 3d 08 93 cd bd
       0.035015255 0.14677265 0.03976921 -0.100378096
0003a0 c4 55 64 bd 48 6b 3e 3e 3c f1 dc bc 15 3f 2e 3d
       -0.055745855 0.18595612 -0.026970498 0.04254063
0003b0 f2 1e 02 3e 54 9c 68 be 86 50 8f 3e f2 7a 2c bd
       0.12707117 -0.22715884 0.27991122 -0.042109437
0003c0 c4 9a 15 3d 34 a3 17 3e 14 12 60 3e b5 15 ed bd
       0.03652455 0.14808351 0.21881896 -0.11576406
0003d0 0d 6d 4e 3d 9b 58 34 bd b0 6e 32 bd f5 84 58 be
       0.050396968 -0.044029813 -0.04356259 -0.21144469
0003e0 f1 4f ea 3d 68 ec 79 3d ec c1 39 bd 0a 75 ee bd
       0.11441029 0.06101647 -0.045350954 -0.11643417
0003f0 c6 d0 27 3d a7 81 c7 bd 50 78 a2 3e b1 19 57 3d
       0.040970586 -0.09741526 0.31732416 0.052514736

conv_relu_5_1/Conv2D_bias f4 [120]
000000 5b 83 e9 3d 70 79 69 3c f8 30 6f be 11 d6 06 be
       0.11402007 0.014250144 -0.23358524 -0.13167597
000010 45 e5 cc bd 75 ba 44 be ff 46 11 3e cb ac 1d 3d
       -0.10004667 -0.19211753 0.14187239 0.038494866
000020 0b 36 33 be ac d8 1f bd 3e eb 49 bd 6f ef 00 bd
       -0.17501085 -0.039024994 -0.04929661 -0.03147834
000030 03 9c 7e 3e 85 4c 03 3d 40 43 9c 3d e7 91 21 bd
       0.24864201 0.032055397 0.076300144 -0.039445784
000040 54 2e 88 bd 5f 1a 76 bd b1 29 7c be b8 a5 22 bd
       -0.066494614 -0.060083743 -0.24625279 -0.039708823
000050 8a 1e 22 be 3d 12 0c be 0d 84 b3 bd ea 0c ef bd
       -0.15831962 -0.13678832 -0.08765421 -0.11672385
000060 31 0c c4 3d d4 5d ed bd 39 ac bc 3d 96 84 82 be
       0.09572638 -0.11590162 0.09212536 -0.2549178
000070 44 76 e6 3c 72 5d 81 3d 46 fb a5 3d 0f 95 4e bd
       0.028132565 0.063166514 0.08104567 -0.050435122
000080 e3 7e 1d be fa 41 f5 bd bd 79 3e be 3d 78 34 3c
       -0.15380435 -0.11975475 -0.18601127 0.011014995
000090 27 d6 04 be 96 77 75 bc 9d 76 31 bd 25 08 9d 3d
       -0.12972318 -0.014982125 -0.04332601 0.07667569
0000a0 e7 b0 3b be 8a ef a1 3c 4f 5b 07 bd 0a ef c5 bc
       -0.18329202 0.019767541 -0.033046063 -0.024161834
0000b0 0f cb ee bd e2 eb 6f be 6c 8f 2e 3d 95 49 34 be
       -0.11659824 -0.23429826 0.042617247 -0.17606194
0000c0 cf 09 0b be 11 ab 30 be 6f 19 0f 3e 37 95 1d 3d
       -0.1357796 -0.17252757 0.13974546 0.03847238
0000d0 a0 c0 f7 3d 61 c4 ab 3c d3 3f 4c be a2 d5 2b be
       0.12097287 0.020967664 -0.19946222 -0.16780713
0000e0 4d ee 8e bd ce 33 dd bb 4f a7 02 bd 76 e8 e3 3d
       -0.06979046 -0.0067505604 -0.03189784 0.11128323
0000f0 35 17 97 bc cf fc 03 bd 1f d5 01 be 56 d6 8b 3e
       -0.018443683 -0.03222352 -0.12678955 0.27311963
000100 37 13 9d 3d 06 ac fc bc 07 ee 24 3d db b8 1f 3e
       0.076696806 -0.030843746 0.040266063 0.1559786
000110 c4 71 9c bd da 34 02 bd e3 2a 20 be 7a b4 4e 3e
       -0.076388866 -0.031788684 -0.1564136 0.20186034
000120 26 e4 80 3c a2 68 3d bd 81 5d ee 3d 0f 68 48 3e
       0.01573379 -0.046242364 0.11638928 0.19570945
000130 2f a4 38 bd b6 dc 61 3c 05 0b 7f 3b 69 dc 96 3d
       -0.045078453 0.013785532 0.003891648 0.07366259
000140 ff 32 cc bd ed b1 6a bd b2 be bc bd 6c f4 36 be
       -0.09970664 -0.05729859 -0.0921606 -0.17866677
000150 36 63 e2 bd 3b 59 ae bc d5 05 85 be d0 09 a6 bd
       -0.11054079 -0.021282783 -0.25981012 -0.0810734
000160 85 cb a5 3d 55 5a 7c 3e f9 5e 82 be 5e 53 87 bd
       0.08095459 0.24643834 -0.25463083 -0.06607698
000170 dd 12 5e bd 70 e2 4e 3c 91 63 70 bd 9b 37 2c bd
       -0.05421721 0.012627229 -0.058688704 -0.042045217
000180 d6 b4 db 3d c9 29 99 bd be 2e 29 bc a2 6b 0d 3e
       0.10727851 -0.07478673 -0.010326086 0.1381059
000190 55 ab 45 3e 64 5f 40 3d 93 de 93 3c 74 74 c4 bb
       0.19303639 0.04696597 0.018050468 -0.0059953276
0001a0 c3 d9 0d bd ab 60 2d 3d 0d a1 b9 3c f7 ea 1a 3d
       -0.034631502 0.042328518 0.022659803 0.037821736
0001b0 81 95 0a 3d 0f 20 c3 3d 59 88 46 bd 3e a8 64 3d
       0.033833984 0.09527599 -0.048469875 0.05582451
0001c0 b0 e8 cf 3d e5 87 81 bd a2 93 9c 3d 7d 33 03 3e
       0.101518035 -0.06324748 0.07645346 0.1281261
0001d0 18 e1 64 3d 06 2e 94 3d 1d f2 ae bd 62 94 00 bd
       0.05587873 0.07235341 -0.08542273 -0.03139151

fc_linear_7/weights/transpose f4 [10, 84]
000000 60 87 99 3d 2b 71 e4 bd cf 66 69 be c3 bc 48 3d
       0.07496524 -0.111543976 -0.22793125 0.049008142
000010 50 c4 65 be 30 66 14 3e 64 f2 09 be 3e 51 e7 bd
       -0.22438169 0.14492106 -0.13471371 -0.112947926
000020 2b d8 b0 bd 00 b6 ab ab f0 c5 2f 3e 12 59 3b be
       -0.08634981 -1.2200796e-12 0.17165351 -0.18295696
000030 6c eb 54 be 07 bd 07 3e 70 5f 05 36 83 3b 1f bd
       -0.20792931 0.13255702 1.9874096e-06 -0.038875114
000040 9c 86 e4 bd 5c b0 3f 3e 83 78 96 3d 01 eb 54 be
       -0.11158487 0.1871962 0.073472045 -0.20792772
000050 76 bb 2e bd 55 52 e0 3d ac da 12 bd f9 14 2b 3e
       -0.042659245 0.109532036 -0.035853073 0.16707219
000060 6a 30 b1 3e 74 7c 15 be 2e 8e 2f 37 77 1b 0c be
       0.3460725 -0.14598256 1.0463917e-05 -0.13682352
000070 d1 d8 45 be a7 00 59 3d ef b8 a3 be 59 7f 36 bd
       -0.1932099 0.052979138 -0.3197703 -0.044555042
000080 fe 35 09 be 2c 42 8e 3e 49 54 1d 3b 18 22 5f 2a
       -0.13399503 0.2778486 0.0024006537 1.9818207e-13
000090 bb 27 89 ae 34 d7 93 3e 53 01 a5 3c c4 85 79 3e
       -6.237096e-11 0.28875124 0.020142233 0.24367434
0000a0 f8 2b ff b9 79 91 43 3e 63 9a e4 3d 53 21 a1 bd
       -0.0004867015 0.19098462 0.111622594 -0.07867684
0000b0 4e a9 fb bd 9a 0a 02 2b af 40 36 be 2f 7b c4 a9
       -0.12288152 4.619999e-13 -0.17798112 -8.7255175e-14
0000c0 a4 96 4e ba 4a 3f 90 bd 54 45 a9 be cb cd 50 bd
       -0.00078807236 -0.070433214 -0.33060706 -0.05097751
0000d0 be bf 7e 3e c6 16 a9 3e 32 9a 3b 3d e3 00 a4 3c
       0.24877831 0.33025187 0.04580135 0.020019954
0000e0 da df 4e be 8c ee 46 bd 18 33 02 bd 69 77 48 bb
       -0.2020258 -0.04856734 -0.031787008 -0.0030588752
0000f0 c9 9e 31 be b9 0c 02 3e 1a bb bb bd 70 3e 01 be
       -0.17345728 0.12700166 -0.09166546 -0.12621474
000100 9b d7 7c 3e d3 80 83 2b e5 2a 2d be 60 67 48 be
       0.24691622 9.343866e-13 -0.16910894 -0.19570684
000110 4f 8f fa 3b 9a 45 76 bd aa c4 21 bc c9 af f9 3c
       0.0076464782 -0.06012497 -0.0098735485 0.030479329
000120 ee f8 b7 3d 73 a0 95 3a c0 30 21 3d e9 12 a3 bd
       0.089830264 0.0011415615 0.039353132 -0.07962591
000130 cc 68 30 be f6 ba a5 3c 66 9a 3d be 68 33 aa bd
       -0.17227477 0.020230751 -0.1851593 -0.08310586
000140 35 b2 0c be cc c2 1e b9 37 9b 1d 3e 86 8c 6a be
       -0.13739856 -0.00015140622 0.15391241 -0.22905168
000150 11 b4 36 3e 4f 6e 61 bc d6 16 89 be 76 39 76 3c
       0.17842127 -0.01375921 -0.26775235 0.015028348
000160 99 58 96 3d 44 ad 89 3d 68 4f 8a bc 92 e8 6e 3e
       0.073411174 0.06722501 -0.016883567 0.23330906
000170 33 f8 06 be 34 b9 87 2a a6 13 cd 3b 0a 55 1b 3d
       -0.13180618 2.4109328e-13 0.006258446 0.037922896
000180 bf 3a c3 3d cd b3 84 3d 70 ec 4c bb b6 96 1a be
       0.09532689 0.06479607 -0.0031268857 -0.15096554
000190 a7 a7 44 3e e6 11 8b 3d 78 89 c0 3e 25 ef 12 3d
       0.1920458 0.06790523 0.3760488 0.035872597
0001a0 41 9f c3 ba 80 a3 16 be 53 d8 6b be 4a 74 7e be
       -0.0014924781 -0.14710808 -0.2303174 -0.24849048
0001b0 2f c4 ab bc 57 5c 6a 3d 7f a9 8f 2a 19 ae ff bd
       -0.020967571 0.05721697 2.5519514e-13 -0.12484378
0001c0 4f 03 a4 3c bf aa 6a be 54 0f 8c 3e be 20 35 3e
       0.020021109 -0.22916697 0.27355444 0.17688271
0001d0 64 02 53 be b8 62 ca bd 71 8f 69 38 66 af 93 aa
       -0.2060638 -0.0988211 5.568512e-05 -2.6234153e-13
0001e0 4f 3e 1b 39 8c 4c 9f bd a0 95 08 3e a5 f1 8b bd
       0.00014805164 -0.07778272 0.13338327 -0.068331994
0001f0 d3 b9 74 3a db 54 52 3e eb ad bb 3d 50 1c 3f be
       0.00093355513 0.20540182 0.091640316 -0.18663144
000200 e1 3e cf 39 86 97 c3 ba d0 29 c1 3c 03 1a eb 29
       0.00039528965 -0.0014922477 0.023579508 1.0440609e-13
000210 a7 c0 4f 3d 5d eb ac 3d c2 67 88 3c 6c cb 9d 3e
       0.050720837 0.084433295 0.016651038 0.3081926
000220 d2 da 76 bd e5 2a 23 be 98 24 8a bd 8c 8d e3 3d
       -0.060267277 -0.15934332 -0.06745261 0.11110982
000230 2d f3 d0 bd d2 5f 73 bd 6a 7a 2d bb 80 99 28 bd
       -0.10202632 -0.059417553 -0.002647067 -0.041162014
000240 25 c2 17 bd 53 6b 04 be be 03 1c 3d e2 1b 70 3c
       -0.037050385 -0.12931566 0.038089506 0.014655085
000250 bf 03 f4 bd 9a 47 90 aa d9 c8 a7 bd 8f f2 c3 bd
       -0.11914777 -2.5629222e-13 -0.081926055 -0.09567749
000260 08 b1 6a be 4f ca 6b bc 4c 58 38 3d 56 de 7e bd
       -0.22919095 -0.014391496 0.04500608 -0.062223755
000270 e0 04 2c 3d d7 3d 89 bd cd eb f5 3d f4 2b cc 3d
       0.041996837 -0.06701248 0.12007866 0.09969321
000280 3f 82 21 3e a7 64 9b 3d 7f 40 b8 3d 10 90 fb bd
       0.15772341 0.07587557 0.08996677 -0.12283337
000290 07 4a 4c bd 3d 62 25 3a 9f 5c 2f be de f1 15 3d
       -0.049875285 0.0006308889 -0.17125176 0.036607616
0002a0 77 7d 68 be e2 04 7c 3e 22 6c 09 be f4 58 34 be
       -0.22704111 0.24611238 -0.13420156 -0.17612058
0002b0 52 99 0b 3e e5 42 16 3e 83 bf 9b be 26 19 d9 bd
       0.13632706 0.14673956 -0.3041955 -0.106005
0002c0 84 88 64 3e 40 a7 49 ab 78 ca 48 3d de a5 c2 3d
       0.22317702 -7.164165e-13 0.049021214 0.09504293
0002d0 b5 88 41 3d 63 88 76 3c d2 2b 39 39 18 51 dc bd
       0.047249515 0.015047166 0.00017659299 -0.10757655
0002e0 42 e5 ab be 1f 72 01 3e eb e2 45 be 96 04 b9 bd
       -0.33573347 0.1264119 -0.19324844 -0.09034078
0002f0 bd f5 1c 3d 60 ea 68 be bb e0 11 3e 7b 80 ae 3d
       0.03832029 -0.22745657 0.14245884 0.085205995
000300 de 7c d4 3d 9c 42 42 bd 70 0f 07 ab e3 ae f3 3d
       0.10375379 -0.047426805 -4.798306e-13 0.11898591
000310 af ab 82 be a2 7a 0e be ca b3 63 be 88 84 4a bd
       -0.2552161 -0.13913968 -0.22236553 -0.049442798
000320 e0 56 29 3e 2d 7c 53 bd 5d 6a 9b bd b5 d0 41 2a
       0.16537046 -0.051632095 -0.075886466 1.7214253e-13
000330 1b 4d 8f b9 64 b5 aa be c6 22 b8 3d 8e 21 e4 bd
       -0.00027332534 -0.33341515 0.089910075 -0.111392125
000340 0d 8a 5e ba cc fb d6 bb a8 21 ac 3d aa 9a f0 bd
       -0.0008489199 -0.0065607782 0.08404857 -0.1174825
000350 72 f2 14 be 11 32 aa ab cc 2a 78 3d 70 bc 20 2a
       -0.1454561 -1.2093123e-12 0.06058769 1.4276232e-13
000360 e3 41 94 be fa a5 66 3e 6f 00 f4 3d 8e ac 76 bc
       -0.28956518 0.22524253 0.11914145 -0.015055789
000370 88 dd 34 3e bf 53 da bd 86 b2 20 be 02 59 bf 3e
       0.17662632 -0.106605045 -0.15693101 0.37372595
000380 0f 5a b9 3d 9c 74 ed 3d 23 10 22 bd 90 8d b5 bd
       0.090503804 0.11594507 -0.03956617 -0.088648915
000390 e7 e9 08 bc 34 49 09 3a 47 7d 97 3d 9e 94 31 bd
       -0.008356548 0.00052370434 0.07396942 -0.043354623
0003a0 6b ee 35 3e 25 30 ab a9 0f 70 a5 3d ad f6 33 3d
       0.1776673 -7.602277e-14 0.08078014 0.04393642
0003b0 bd 3e 07 3c 62 d9 76 3e 3d 92 be bc d4 9c fd 39
       0.008254704 0.24106362 -0.023263091 0.00048372766
0003c0 24 00 b6 3e ae 98 ae bc 8d c2 22 bd 33 9e 86 3d
       0.35546982 -0.021313038 -0.03973632 0.06573143
0003d0 e1 a6 13 3b 33 00 24 ba 29 c0 70 3c 6e 3e 7d be
       0.0022529888 -0.0006256133 0.014694252 -0.24730846
0003e0 4a bf e3 3d 07 47 9f bb b3 33 58 3d ed 81 be 3d
       0.1112047 -0.004860762 0.05278368 0.09302125
0003f0 5f 2a 03 be 7e a1 bc bc 50 d5 89 bd 87 1c c1 bc
       -0.12809132 -0.023026224 -0.06730139 -0.023573173

fc_linear_7_1/MatMul_bias f4 [10]
000000 52 72 2e 3e 39 4a a5 3c cd c8 45 be 12 77 94 bd
       0.17035797 0.020176994 -0.1931488 -0.07249273
000010 6e 2a bb bd 88 c8 e6 bd 8b 08 a5 3d 46 85 1a bd
       -0.09138952 -0.11268717 0.0805827 -0.037724756
000020 57 27 3b bb b4 58 02 bd
       -0.0028557384 -0.031822875

fc_relu_6/weights/transpose f4 [84, 120]
000000 62 d1 8a 3d 7a bf 1d bd 58 d4 9d ac 72 ea 33 2b
       0.06778218 -0.038512684 -4.4857833e-12 6.3918933e-13
000010 ba 8f fe bd 58 8b 63 39 4f e0 e2 3c b9 e6 38 bd
       -0.124297574 0.00021700317 0.02769485 -0.04514191
000020 36 0b 44 aa 6a ac 0b 3e 58 13 99 bd c1 62 ab 3d
       -1.7412187e-13 0.1363999 -0.07474393 0.08368445
000030 b8 ec ed bd bf 14 f1 bd 1b 98 a7 3d c1 8f 20 3e
       -0.11617416 -0.11771535 0.08183309 0.15679838
000040 b9 40 bf aa b6 58 64 2a 2f c1 a7 2a f7 14 8c 3e
       -3.3973326e-13 2.0281246e-13 2.9799207e-13 0.27359745
000050 45 d4 22 3d b5 02 17 bd 3a b3 81 3e 3b 67 f3 bc
       0.039753217 -0.036867816 0.25332052 -0.02971231
000060 b3 98 c1 bd 37 d7 8b 3c 7e eb 06 3e 92 1f 90 aa
       -0.09452953 0.017070396 0.1317577 -2.5601445e-13
000070 a4 bc d4 bd fd 35 4e 3d 72 79 db 3d 9d 17 f6 bb
       -0.10387543 0.050344456 0.10716523 -0.007510139
000080 ec ba 9d 2a a6 ad a1 29 cc 32 a0 bd d7 f1 36 bd
       2.8018505e-13 7.1799595e-14 -0.07822189 -0.04466423
000090 47 1e a8 3d 1a fb 26 bc 04 67 46 2a 5c 83 80 be
       0.082089 -0.010191703 1.7621673e-13 -0.2510022
0000a0 99 74 e5 bb 3f d8 02 bb 8a 9d 1d 3e b6 07 3d 3e
       -0.007002425 -0.0019965318 0.15392128 0.18459973
0000b0 4e fb 90 ba 17 be 07 3d 84 57 3c aa 1e 50 2c 3e
       -0.0011061223 0.03314027 -1.6728117e-13 0.16827437
0000c0 c1 2d e6 3d 97 ed 30 3e 0d 00 19 bd b2 fb 9e bc
       0.112391956 0.17278133 -0.037353564 -0.019407127
0000d0 7b cb d4 bd 1c 33 8c 3d de 2c 92 3d cf 00 80 28
       -0.10390373 0.06845686 0.07137464 1.4211205e-14
0000e0 51 f5 5c 3d b3 c0 f8 38 0a dc d0 3d c1 13 e0 3d
       0.05394489 0.000118614545 0.10198219 0.10941268
0000f0 01 a4 72 bd 42 45 a2 bb 25 55 77 aa 04 7f f8 3d
       -0.059238438 -0.004952104 -2.1967547e-13 0.12133601
000100 1b 52 01 be b8 70 95 bc 0c 0f a7 bc 96 90 45 bd
       -0.12628977 -0.018242225 -0.020392917 -0.04823359
000110 c8 2a 81 3d c7 e3 a0 bd fe 20 1a 38 0d a1 e0 aa
       0.06306988 -0.07855945 3.6747188e-05 -3.9902145e-13
000120 c0 e8 0b be 6f 3d 08 3d b8 ec 58 be 56 0c 1a be
       -0.13663006 0.033261713 -0.21184051 -0.15043768
000130 1f 6a 78 bc fa 69 d8 3d 5d 56 6d 3e 91 c5 aa bd
       -0.01516202 0.105670884 0.23177476 -0.08338464
000140 5a a0 ed bc fb 45 b7 bd 00 1e 2e 27 5d 58 d6 3d
       -0.029007126 -0.089488946 2.4163614e-15 0.10466073
000150 e8 c2 fb 3c f1 21 4c 3e 87 bd 19 bd ff e0 69 3b
       0.030732587 0.19934823 -0.037534263 0.0035687087
000160 69 e4 2a be 35 29 b2 bc 42 65 9e aa 6a 1e 29 3e
       -0.16688694 -0.021748165 -2.81367e-13 0.16515508
000170 b3 bf 1a 3e 0f bf 8c be ed 24 1f be 54 81 21 3e
       0.1511219 -0.27489516 -0.1554143 0.15771991
000180 49 84 a1 3d b1 51 98 3d 1c c9 08 3b b0 7b 7b 3d
       0.078865595 0.074374564 0.0020871824 0.061397254
000190 88 d3 44 3c ef 68 89 3e 26 39 39 3d ed 7a be 3d
       0.012013324 0.2683787 0.045220517 0.0930079
0001a0 28 a5 86 39 5e 03 41 3e 7e 92 89 bd df 42 fb 3d
       0.00025681523 0.1884894 -0.06717394 0.12268614
0001b0 d3 6e 29 bd 5b 7a bd 3d e9 0d 9a bc f7 f5 ad bd
       -0.041365456 0.09251853 -0.018805461 -0.0849418
0001c0 c7 c2 8c 3e 9a 4b b3 aa 64 d8 05 3e cc 9e 04 3d
       0.27492353 -3.1849247e-13 0.13070828 0.032378003
0001d0 94 85 46 3e 16 ad 2b be 79 9d fd bc 39 c1 bb 3c
       0.19386894 -0.16765246 -0.030958878 0.022919284
0001e0 79 35 97 3e 06 68 a3 3c 6c be 45 aa 2d 24 93 2b
       0.29532984 0.019947063 -1.7563181e-13 1.0455019e-12
0001f0 7c ed a4 3d 73 96 a2 2a 1f 8e 9d bd a1 7a 28 be
       0.08053109 2.8881376e-13 -0.07693123 -0.16453029
000200 df e1 0b 2a 5e d8 69 ba d8 3e 4b 3e d8 41 48 bd
       1.2424045e-13 -0.0008920486 0.19848192 -0.04889092
000210 f2 9e c7 bd 33 cc ca 3d 85 e6 42 3e ad fa 46 be
       -0.09747113 0.09902229 0.19033249 -0.19431563
000220 56 23 05 2b 84 4a 4f ab 07 51 b3 aa 2f 69 85 bd
       4.730013e-13 -7.3644584e-13 -3.1853011e-13 -0.06514203
000230 20 ac e4 3d 83 8a c2 bd e8 67 00 3d 52 66 03 be
       0.11165643 -0.09499075 0.031349093 -0.12832001
000240 32 11 24 be e6 0a 4f bc 39 b4 2d 3c b0 76 08 ab
       -0.16022184 -0.012636876 0.01060205 -4.848162e-13
000250 a7 af a1 3e a0 93 95 3e f5 b3 ca bd b1 1b d7 bd
       0.31579325 0.2921419 -0.09897605 -0.105033286
000260 14 5b 00 b4 c4 e0 dd 29 61 9e 09 3d 6b d0 0c 3d
       -1.1954063e-07 9.853362e-14 0.033598308 0.03437845
000270 b8 75 7e bd db cd 70 3d 8a 90 ab 2a de 7e 9a 3d
       -0.062123984 0.05879007 3.0475996e-13 0.07543729
000280 13 38 26 3e bd f8 08 b7 21 04 83 be e9 67 05 3e
       0.16232328 -8.164146e-06 -0.25589088 0.1302792
000290 b5 78 c6 3c 93 f0 99 bd 35 1b e8 2d 11 e6 f3 3d
       0.02422748 -0.07516589 2.6387429e-11 0.11909116
0002a0 88 f0 02 3d a6 4e 9c bd 55 d1 5a 3d ab 87 34 be
       0.03196767 -0.076321885 0.05342229 -0.17629878
0002b0 bf d7 f3 3d 6b 8a b0 3c 1a 67 99 bd 63 46 c6 a8
       0.11906385 0.021550378 -0.07490368 -2.2012941e-14
0002c0 1c 99 1f 3e 96 d4 ae 39 4b 60 9c 3d 89 2c fc 3c
       0.1558575 0.00033346255 0.07635554 0.030782955
0002d0 fa 9b 58 3e e9 2a 16 bd ea 0c 27 ab b7 a6 7c 3a
       0.2115325 -0.036662016 -5.934824e-13 0.00096378796
0002e0 83 73 a5 bc 20 d2 76 3d d9 8e e7 3d 9d d2 3e 3d
       -0.020196682 0.060258985 0.11306543 0.046587575
0002f0 2d 2b 5e bd dd c9 60 be 2d 9a c6 aa 49 81 9d 2a
       -0.054240394 -0.21952005 -3.5278846e-13 2.7978512e-13
000300 51 43 4a 3e cb 89 6f 3d 23 67 4b 3e 7b a6 81 3e
       0.19752242 0.05848102 0.19863562 0.25322327
000310 c6 12 48 3c 4f 49 5b 3d 55 75 2e 3d 48 26 05 bd
       0.012211507 0.05353671 0.042592365 -0.03250721
000320 b1 b8 d0 3d cb 97 16 bd 8a 88 c4 a9 05 23 08 3e
       0.10191477 -0.036765855 -8.727834e-14 0.13294609
000330 2c d4 9b 3d bb d1 e5 bd 48 7b 7f bd 33 9a 85 3a
       0.07608828 -0.112216435 -0.06237343 0.001019305
000340 07 59 1a be f8 d8 40 bd f2 62 bc 2b 18 6a 45 be
       -0.15073024 -0.047081918 1.3385666e-12 -0.19278753
000350 e2 00 f7 3d 24 ab 87 bd c3 c3 20 be f5 b5 53 be
       0.12060715 -0.06624439 -0.15699677 -0.2067488
000360 30 8b 17 3d 11 32 84 bd 3e fb 3d 3e 8e 25 ae bc
       0.036997974 -0.06454862 0.18552873 -0.021258142
000370 3d 43 8c 3e 39 50 93 3e 88 09 2f 3d 42 24 16 3d
       0.2739505 0.28772143 0.0427337 0.036655672
000380 cc fe 04 3b 9a fa dc 3c 4b 8e 12 bc a6 f9 98 3c
       0.0020293472 0.026974965 -0.008945058 0.01867373
000390 8e 47 67 3c b3 97 04 3e 62 c1 e0 3d 57 53 eb 3d
       0.014116181 0.12948494 0.10974385 0.11490505
0003a0 70 e4 82 be 89 d5 8e 2c db 4f 37 3e f5 78 cc 3d
       -0.2556491 4.05959e-12 0.17901556 0.09984008
0003b0 b8 9d 79 3d 51 1f 95 3d 1f 29 e6 ba 1b 20 6b bd
       0.060941428 0.07281364 -0.0017559862 -0.057403665
0003c0 8d d6 a3 be b9 f5 ff ba f2 a5 4c 2a 54 db 4c aa
       -0.31999627 -0.0019528187 1.8176414e-13 -1.8194934e-13
0003d0 36 fa 69 ba 28 96 06 2a 1c 79 e9 3d 36 59 b6 bc
       -0.0008925529 1.1953687e-13 0.11400053 -0.022259336
0003e0 2a d0 31 2b f5 66 22 3e a6 99 5c 3d 9d 6a 75 bd
       6.317192e-13 0.15859587 0.053857468 -0.059916127
0003f0 1c 14 bb 3e 09 47 2a 3d a7 07 98 bd de 6f 9d 3d
       0.3653878 0.04157165 -0.074233346 0.076873526

fc_relu_6_1/MatMul_bias f4 [84]
000000 57 f3 83 3d 7f 05 46 3d 95 ed c7 bd fd 75 95 bc
       0.06442898 0.048345085 -0.09762112 -0.018244738
000010 c9 42 0e be 4e 24 c4 bd 1d 82 01 3e c3 f5 df 3b
       -0.13892664 -0.09577237 0.1264729 0.006834717
000020 2d 5d c2 bd 87 12 b4 bb e1 58 b3 bc 56 cd 88 bd
       -0.09490428 -0.0054953727 -0.021892967 -0.0667979
000030 8b 77 47 3e 2f 10 40 3b 9b 7f d9 bb fe 85 db ba
       0.19479196 0.0029306521 -0.006637526 -0.0016748307
000040 68 9b 6f bc 3a 8d 5a 3d c0 27 34 be ca ff da bc
       -0.014624454 0.05335734 -0.17593288 -0.026733298
000050 43 f8 b9 bd 0f ff 10 be e4 29 d1 bc 95 fc ed bd
       -0.09080555 -0.14159797 -0.02553267 -0.11620442
000060 7a 77 98 3c 34 51 12 bd 9a 56 af b9 40 94 0b be
       0.018611658 -0.035721973 -0.00033443124 -0.13630772
000070 63 f8 cc 3d f7 f7 b3 3d 13 41 05 3d 90 f3 7b bc
       0.100083135 0.0878753 0.032532763 -0.015377894
000080 18 17 a8 3c b2 e9 b7 3d 80 a8 30 be 2f 5b b2 bc
       0.020518824 0.08980121 -0.17251778 -0.021771995
000090 f3 c0 37 2f e2 52 2e 3e a6 ea 27 3d 89 85 82 3d
       1.6712302e-10 0.17023805 0.040995263 0.06373126
0000a0 c7 9c a7 bd 9e 12 6e 3d c4 bd e5 3b cd 47 1a 3b
       -0.081842 0.058123223 0.007011147 0.0023541332
0000b0 72 b4 49 bc ad 16 55 bb 5b 1f dd 3d 82 d5 90 b7
       -0.012311088 -0.0032514737 0.10796996 -1.726556e-05
0000c0 5a 43 50 bd 3f d5 47 be 3e 6f c0 3d c9 b0 50 3d
       -0.05084548 -0.1951494 0.09396218 0.050949845
0000d0 24 de 14 3e cf 50 25 3e 54 f8 57 be fd f2 fd bd
       0.14537865 0.16144107 -0.21090823 -0.12399862
0000e0 77 6d 3e bd 8a 44 07 3d e8 bf 63 3c c6 63 01 3e
       -0.046491113 0.03302435 0.0139007345 0.12635717
0000f0 d9 25 3d bd 45 4e 14 3d 9d 1c ff 3c 0c 3d 8c 3e
       -0.046178672 0.036207456 0.031141574 0.27390325
000100 df e9 9f 3d 0d b7 c7 bc 1f 8a 18 3d b1 80 2c 3e
       0.07808279 -0.024379278 0.037241098 0.16845967
000110 d3 1b 81 bd ed 20 cd bd 3e d2 bb bd d7 4b 93 3e
       -0.06304135 -0.10016046 -0.0917096 0.287688
000120 0e c0 cd ba b7 4f cf bd 28 a5 bb 3d a6 66 fa 3d
       -0.0015697496 -0.10122626 0.091623604 0.1222661
000130 d6 30 85 bd d6 28 35 bd 37 61 1e 3d b4 b1 c0 3d
       -0.06503455 -0.044228397 0.03866693 0.09408894
000140 9e 2b 0d bd 69 30 a3 bd 60 da b3 bc d7 2b 3c be
       -0.034465425 -0.07968218 -0.021954715 -0.18376099
